#map = affine_map<(d0) -> (d0)>
#map1 = affine_map<(d0, d1) -> (d1)>
#map2 = affine_map<(d0, d1) -> (d0, d1)>
#map3 = affine_map<(d0, d1) -> (d0)>
#map4 = affine_map<(d0, d1) -> (d0, 0)>
#map5 = affine_map<(d0, d1) -> (d1, d0)>
#map6 = affine_map<() -> ()>
#map7 = affine_map<(d0) -> ()>
#map8 = affine_map<(d0, d1) -> ()>
module {
  ml_program.global public mutable @vars.__sm_node34__model._layers.4.bias(dense<0.000000e+00> : tensor<10xf32>) : tensor<10xf32>
  ml_program.global public mutable @vars.__sm_node33__model._layers.4._kernel(dense<"…"> : tensor<128x10xf32>) : tensor<128x10xf32>
  ml_program.global public mutable @vars.__sm_node32__model._layers.2.bias(dense<0.000000e+00> : tensor<128xf32>) : tensor<128xf32>
  ml_program.global public mutable @vars.__sm_node31__model._layers.2._kernel(dense<"…"> : tensor<784x128xf32>) : tensor<784x128xf32>
  ml_program.global public mutable @vars.__sm_node19__optimizer._iterations(dense<0> : tensor<i64>) : tensor<i64>
  ml_program.global public @vars.__sm_node20__optimizer._learning_rate(dense<0.00999999977> : tensor<f32>) : tensor<f32>
  func.func @learn(%arg0: tensor<32x28x28x1xf32>, %arg1: tensor<32xi32>) -> tensor<f32> {
    %cst = arith.constant dense<3.125000e-02> : tensor<32x10xf32>
    %cst_0 = arith.constant dense<0x7FC00000> : tensor<32xf32>
    %cst_1 = arith.constant dense<0.000000e+00> : tensor<32xf32>
    %cst_2 = arith.constant dense<10> : tensor<32xi64>
    %cst_3 = arith.constant dense<0> : tensor<32xi64>
    %cst_4 = arith.constant dense<0.000000e+00> : tensor<32x10xf32>
    %cst_5 = arith.constant dense<1.000000e+00> : tensor<32x10xf32>
    %cst_6 = arith.constant dense<0.000000e+00> : tensor<32x128xf32>
    %cst_7 = arith.constant dense<-0.000000e+00> : tensor<f32>
    %cst_8 = arith.constant dense<0xFF800000> : tensor<f32>
    %cst_9 = arith.constant dense<1> : tensor<i64>
    %cst_10 = arith.constant dense<3.200000e+01> : tensor<f32>
    %collapsed = tensor.collapse_shape %arg0 [[0], [1, 2, 3]] : tensor<32x28x28x1xf32> into tensor<32x784xf32>
    %0 = tensor.empty() : tensor<32xf32>
    %1 = linalg.generic {indexing_maps = [#map, #map], iterator_types = ["parallel"]} ins(%arg1 : tensor<32xi32>) outs(%0 : tensor<32xf32>) {
    ^bb0(%in: i32, %out: f32):
      %160 = arith.sitofp %in : i32 to f32
      linalg.yield %160 : f32
    } -> tensor<32xf32>
    %2 = tensor.empty() : tensor<32xi64>
    %3 = linalg.generic {indexing_maps = [#map, #map], iterator_types = ["parallel"]} ins(%1 : tensor<32xf32>) outs(%2 : tensor<32xi64>) {
    ^bb0(%in: f32, %out: i64):
      %160 = arith.fptosi %in : f32 to i64
      linalg.yield %160 : i64
    } -> tensor<32xi64>
    %4 = tensor.empty() : tensor<10xi64>
    %5 = linalg.generic {indexing_maps = [#map], iterator_types = ["parallel"]} outs(%4 : tensor<10xi64>) {
    ^bb0(%out: i64):
      %160 = linalg.index 0 : index
      %161 = arith.index_cast %160 : index to i64
      linalg.yield %161 : i64
    } -> tensor<10xi64>
    %6 = tensor.empty() : tensor<32x10xi64>
    %7 = linalg.generic {indexing_maps = [#map1, #map2], iterator_types = ["parallel", "parallel"]} ins(%5 : tensor<10xi64>) outs(%6 : tensor<32x10xi64>) {
    ^bb0(%in: i64, %out: i64):
      linalg.yield %in : i64
    } -> tensor<32x10xi64>
    %8 = tensor.empty() : tensor<32x10xi64>
    %9 = linalg.generic {indexing_maps = [#map3, #map2], iterator_types = ["parallel", "parallel"]} ins(%3 : tensor<32xi64>) outs(%8 : tensor<32x10xi64>) {
    ^bb0(%in: i64, %out: i64):
      linalg.yield %in : i64
    } -> tensor<32x10xi64>
    %10 = tensor.empty() : tensor<32x10xi1>
    %11 = linalg.generic {indexing_maps = [#map2, #map2, #map2], iterator_types = ["parallel", "parallel"]} ins(%9, %7 : tensor<32x10xi64>, tensor<32x10xi64>) outs(%10 : tensor<32x10xi1>) {
    ^bb0(%in: i64, %in_28: i64, %out: i1):
      %160 = arith.cmpi eq, %in, %in_28 : i64
      linalg.yield %160 : i1
    } -> tensor<32x10xi1>
    %12 = tensor.empty() : tensor<32x10xf32>
    %13 = linalg.generic {indexing_maps = [#map2, #map2, #map2, #map2], iterator_types = ["parallel", "parallel"]} ins(%11, %cst_5, %cst_4 : tensor<32x10xi1>, tensor<32x10xf32>, tensor<32x10xf32>) outs(%12 : tensor<32x10xf32>) {
    ^bb0(%in: i1, %in_28: f32, %in_29: f32, %out: f32):
      %160 = arith.select %in, %in_28, %in_29 : f32
      linalg.yield %160 : f32
    } -> tensor<32x10xf32>
    %14 = tensor.empty() : tensor<32xi1>
    %15 = linalg.generic {indexing_maps = [#map, #map, #map], iterator_types = ["parallel"]} ins(%cst_3, %3 : tensor<32xi64>, tensor<32xi64>) outs(%14 : tensor<32xi1>) {
    ^bb0(%in: i64, %in_28: i64, %out: i1):
      %160 = arith.cmpi sle, %in, %in_28 : i64
      linalg.yield %160 : i1
    } -> tensor<32xi1>
    %16 = tensor.empty() : tensor<32xi1>
    %17 = linalg.generic {indexing_maps = [#map, #map, #map], iterator_types = ["parallel"]} ins(%3, %cst_2 : tensor<32xi64>, tensor<32xi64>) outs(%16 : tensor<32xi1>) {
    ^bb0(%in: i64, %in_28: i64, %out: i1):
      %160 = arith.cmpi slt, %in, %in_28 : i64
      linalg.yield %160 : i1
    } -> tensor<32xi1>
    %18 = tensor.empty() : tensor<32xi1>
    %19 = linalg.generic {indexing_maps = [#map, #map, #map], iterator_types = ["parallel"]} ins(%15, %17 : tensor<32xi1>, tensor<32xi1>) outs(%18 : tensor<32xi1>) {
    ^bb0(%in: i1, %in_28: i1, %out: i1):
      %160 = arith.andi %in, %in_28 : i1
      linalg.yield %160 : i1
    } -> tensor<32xi1>
    %20 = tensor.empty() : tensor<32xf32>
    %21 = linalg.generic {indexing_maps = [#map, #map, #map, #map], iterator_types = ["parallel"]} ins(%19, %cst_1, %cst_0 : tensor<32xi1>, tensor<32xf32>, tensor<32xf32>) outs(%20 : tensor<32xf32>) {
    ^bb0(%in: i1, %in_28: f32, %in_29: f32, %out: f32):
      %160 = arith.select %in, %in_28, %in_29 : f32
      linalg.yield %160 : f32
    } -> tensor<32xf32>
    %expanded = tensor.expand_shape %21 [[0, 1]] : tensor<32xf32> into tensor<32x1xf32>
    %22 = tensor.empty() : tensor<32x10xf32>
    %23 = linalg.generic {indexing_maps = [#map4, #map2], iterator_types = ["parallel", "parallel"]} ins(%expanded : tensor<32x1xf32>) outs(%22 : tensor<32x10xf32>) {
    ^bb0(%in: f32, %out: f32):
      linalg.yield %in : f32
    } -> tensor<32x10xf32>
    %24 = tensor.empty() : tensor<32x10xf32>
    %25 = linalg.generic {indexing_maps = [#map2, #map2, #map2], iterator_types = ["parallel", "parallel"]} ins(%13, %23 : tensor<32x10xf32>, tensor<32x10xf32>) outs(%24 : tensor<32x10xf32>) {
    ^bb0(%in: f32, %in_28: f32, %out: f32):
      %160 = arith.addf %in, %in_28 : f32
      linalg.yield %160 : f32
    } -> tensor<32x10xf32>
    %26 = tensor.empty() : tensor<32x10xf32>
    %27 = linalg.generic {indexing_maps = [#map2, #map2], iterator_types = ["parallel", "parallel"]} ins(%25 : tensor<32x10xf32>) outs(%26 : tensor<32x10xf32>) {
    ^bb0(%in: f32, %out: f32):
      %160 = arith.negf %in : f32
      linalg.yield %160 : f32
    } -> tensor<32x10xf32>
    %28 = tensor.empty() : tensor<32x10xi1>
    %29 = linalg.generic {indexing_maps = [#map2, #map2, #map2], iterator_types = ["parallel", "parallel"]} ins(%27, %cst_4 : tensor<32x10xf32>, tensor<32x10xf32>) outs(%28 : tensor<32x10xi1>) {
    ^bb0(%in: f32, %in_28: f32, %out: i1):
      %160 = arith.cmpf oeq, %in, %in_28 : f32
      linalg.yield %160 : i1
    } -> tensor<32x10xi1>
    %30 = tensor.empty() : tensor<784x32xf32>
    %31 = linalg.generic {indexing_maps = [#map5, #map2], iterator_types = ["parallel", "parallel"]} ins(%collapsed : tensor<32x784xf32>) outs(%30 : tensor<784x32xf32>) {
    ^bb0(%in: f32, %out: f32):
      linalg.yield %in : f32
    } -> tensor<784x32xf32>
    %32 = ml_program.global_load @vars.__sm_node34__model._layers.4.bias : tensor<10xf32>
    %33 = ml_program.global_load @vars.__sm_node33__model._layers.4._kernel : tensor<128x10xf32>
    %34 = ml_program.global_load @vars.__sm_node32__model._layers.2.bias : tensor<128xf32>
    %35 = ml_program.global_load @vars.__sm_node31__model._layers.2._kernel : tensor<784x128xf32>
    %36 = ml_program.global_load @vars.__sm_node19__optimizer._iterations : tensor<i64>
    %37 = tensor.empty() : tensor<32x128xf32>
    %cst_11 = arith.constant 0.000000e+00 : f32
    %38 = linalg.fill ins(%cst_11 : f32) outs(%37 : tensor<32x128xf32>) -> tensor<32x128xf32>
    %39 = linalg.matmul ins(%collapsed, %35 : tensor<32x784xf32>, tensor<784x128xf32>) outs(%38 : tensor<32x128xf32>) -> tensor<32x128xf32>
    %40 = tensor.empty() : tensor<32x128xf32>
    %41 = linalg.generic {indexing_maps = [#map1, #map2], iterator_types = ["parallel", "parallel"]} ins(%34 : tensor<128xf32>) outs(%40 : tensor<32x128xf32>) {
    ^bb0(%in: f32, %out: f32):
      linalg.yield %in : f32
    } -> tensor<32x128xf32>
    %42 = tensor.empty() : tensor<32x128xf32>
    %43 = linalg.generic {indexing_maps = [#map2, #map2, #map2], iterator_types = ["parallel", "parallel"]} ins(%39, %41 : tensor<32x128xf32>, tensor<32x128xf32>) outs(%42 : tensor<32x128xf32>) {
    ^bb0(%in: f32, %in_28: f32, %out: f32):
      %160 = arith.addf %in, %in_28 : f32
      linalg.yield %160 : f32
    } -> tensor<32x128xf32>
    %44 = tensor.empty() : tensor<32x128xf32>
    %45 = linalg.generic {indexing_maps = [#map2, #map2, #map2], iterator_types = ["parallel", "parallel"]} ins(%43, %cst_6 : tensor<32x128xf32>, tensor<32x128xf32>) outs(%44 : tensor<32x128xf32>) {
    ^bb0(%in: f32, %in_28: f32, %out: f32):
      %160 = arith.maximumf %in, %in_28 : f32
      linalg.yield %160 : f32
    } -> tensor<32x128xf32>
    %46 = tensor.empty() : tensor<32x10xf32>
    %cst_12 = arith.constant 0.000000e+00 : f32
    %47 = linalg.fill ins(%cst_12 : f32) outs(%46 : tensor<32x10xf32>) -> tensor<32x10xf32>
    %48 = linalg.matmul ins(%45, %33 : tensor<32x128xf32>, tensor<128x10xf32>) outs(%47 : tensor<32x10xf32>) -> tensor<32x10xf32>
    %49 = tensor.empty() : tensor<32x10xf32>
    %50 = linalg.generic {indexing_maps = [#map1, #map2], iterator_types = ["parallel", "parallel"]} ins(%32 : tensor<10xf32>) outs(%49 : tensor<32x10xf32>) {
    ^bb0(%in: f32, %out: f32):
      linalg.yield %in : f32
    } -> tensor<32x10xf32>
    %51 = tensor.empty() : tensor<32x10xf32>
    %52 = linalg.generic {indexing_maps = [#map2, #map2, #map2], iterator_types = ["parallel", "parallel"]} ins(%48, %50 : tensor<32x10xf32>, tensor<32x10xf32>) outs(%51 : tensor<32x10xf32>) {
    ^bb0(%in: f32, %in_28: f32, %out: f32):
      %160 = arith.addf %in, %in_28 : f32
      linalg.yield %160 : f32
    } -> tensor<32x10xf32>
    %cst_13 = arith.constant 0xFF800000 : f32
    %53 = tensor.empty() : tensor<32xf32>
    %54 = linalg.fill ins(%cst_13 : f32) outs(%53 : tensor<32xf32>) -> tensor<32xf32>
    %55 = linalg.generic {indexing_maps = [#map2, #map3], iterator_types = ["parallel", "reduction"]} ins(%52 : tensor<32x10xf32>) outs(%54 : tensor<32xf32>) {
    ^bb0(%in: f32, %out: f32):
      %from_elements = tensor.from_elements %out : tensor<f32>
      %from_elements_28 = tensor.from_elements %in : tensor<f32>
      %extracted = tensor.extract %from_elements[] : tensor<f32>
      %extracted_29 = tensor.extract %from_elements_28[] : tensor<f32>
      %160 = arith.maximumf %extracted, %extracted_29 : f32
      %from_elements_30 = tensor.from_elements %160 : tensor<f32>
      %extracted_31 = tensor.extract %from_elements_30[] : tensor<f32>
      linalg.yield %extracted_31 : f32
    } -> tensor<32xf32>
    %expanded_14 = tensor.expand_shape %55 [[0, 1]] : tensor<32xf32> into tensor<32x1xf32>
    %56 = tensor.empty() : tensor<32x10xf32>
    %57 = linalg.generic {indexing_maps = [#map4, #map2], iterator_types = ["parallel", "parallel"]} ins(%expanded_14 : tensor<32x1xf32>) outs(%56 : tensor<32x10xf32>) {
    ^bb0(%in: f32, %out: f32):
      linalg.yield %in : f32
    } -> tensor<32x10xf32>
    %58 = tensor.empty() : tensor<32x10xf32>
    %59 = linalg.generic {indexing_maps = [#map2, #map2, #map2], iterator_types = ["parallel", "parallel"]} ins(%52, %57 : tensor<32x10xf32>, tensor<32x10xf32>) outs(%58 : tensor<32x10xf32>) {
    ^bb0(%in: f32, %in_28: f32, %out: f32):
      %160 = arith.subf %in, %in_28 : f32
      linalg.yield %160 : f32
    } -> tensor<32x10xf32>
    %60 = tensor.empty() : tensor<32x10xf32>
    %61 = linalg.generic {indexing_maps = [#map2, #map2], iterator_types = ["parallel", "parallel"]} ins(%59 : tensor<32x10xf32>) outs(%60 : tensor<32x10xf32>) {
    ^bb0(%in: f32, %out: f32):
      %160 = math.exp %in : f32
      linalg.yield %160 : f32
    } -> tensor<32x10xf32>
    %cst_15 = arith.constant -0.000000e+00 : f32
    %62 = tensor.empty() : tensor<32xf32>
    %63 = linalg.fill ins(%cst_15 : f32) outs(%62 : tensor<32xf32>) -> tensor<32xf32>
    %64 = linalg.generic {indexing_maps = [#map2, #map3], iterator_types = ["parallel", "reduction"]} ins(%61 : tensor<32x10xf32>) outs(%63 : tensor<32xf32>) {
    ^bb0(%in: f32, %out: f32):
      %from_elements = tensor.from_elements %out : tensor<f32>
      %from_elements_28 = tensor.from_elements %in : tensor<f32>
      %extracted = tensor.extract %from_elements[] : tensor<f32>
      %extracted_29 = tensor.extract %from_elements_28[] : tensor<f32>
      %160 = arith.addf %extracted, %extracted_29 : f32
      %from_elements_30 = tensor.from_elements %160 : tensor<f32>
      %extracted_31 = tensor.extract %from_elements_30[] : tensor<f32>
      linalg.yield %extracted_31 : f32
    } -> tensor<32xf32>
    %expanded_16 = tensor.expand_shape %64 [[0, 1]] : tensor<32xf32> into tensor<32x1xf32>
    %65 = tensor.empty() : tensor<32x1xf32>
    %66 = linalg.generic {indexing_maps = [#map2, #map2], iterator_types = ["parallel", "parallel"]} ins(%expanded_16 : tensor<32x1xf32>) outs(%65 : tensor<32x1xf32>) {
    ^bb0(%in: f32, %out: f32):
      %160 = math.log %in : f32
      linalg.yield %160 : f32
    } -> tensor<32x1xf32>
    %67 = tensor.empty() : tensor<32x10xf32>
    %68 = linalg.generic {indexing_maps = [#map4, #map2], iterator_types = ["parallel", "parallel"]} ins(%66 : tensor<32x1xf32>) outs(%67 : tensor<32x10xf32>) {
    ^bb0(%in: f32, %out: f32):
      linalg.yield %in : f32
    } -> tensor<32x10xf32>
    %69 = tensor.empty() : tensor<32x10xf32>
    %70 = linalg.generic {indexing_maps = [#map2, #map2, #map2], iterator_types = ["parallel", "parallel"]} ins(%59, %68 : tensor<32x10xf32>, tensor<32x10xf32>) outs(%69 : tensor<32x10xf32>) {
    ^bb0(%in: f32, %in_28: f32, %out: f32):
      %160 = arith.subf %in, %in_28 : f32
      linalg.yield %160 : f32
    } -> tensor<32x10xf32>
    %71 = tensor.empty() : tensor<32x10xf32>
    %72 = linalg.generic {indexing_maps = [#map2, #map2, #map2], iterator_types = ["parallel", "parallel"]} ins(%70, %27 : tensor<32x10xf32>, tensor<32x10xf32>) outs(%71 : tensor<32x10xf32>) {
    ^bb0(%in: f32, %in_28: f32, %out: f32):
      %160 = arith.mulf %in, %in_28 : f32
      linalg.yield %160 : f32
    } -> tensor<32x10xf32>
    %73 = tensor.empty() : tensor<32x10xf32>
    %74 = linalg.generic {indexing_maps = [#map2, #map2, #map2, #map2], iterator_types = ["parallel", "parallel"]} ins(%29, %cst_4, %72 : tensor<32x10xi1>, tensor<32x10xf32>, tensor<32x10xf32>) outs(%73 : tensor<32x10xf32>) {
    ^bb0(%in: i1, %in_28: f32, %in_29: f32, %out: f32):
      %160 = arith.select %in, %in_28, %in_29 : f32
      linalg.yield %160 : f32
    } -> tensor<32x10xf32>
    %cst_17 = arith.constant -0.000000e+00 : f32
    %75 = tensor.empty() : tensor<32xf32>
    %76 = linalg.fill ins(%cst_17 : f32) outs(%75 : tensor<32xf32>) -> tensor<32xf32>
    %77 = linalg.generic {indexing_maps = [#map2, #map3], iterator_types = ["parallel", "reduction"]} ins(%74 : tensor<32x10xf32>) outs(%76 : tensor<32xf32>) {
    ^bb0(%in: f32, %out: f32):
      %from_elements = tensor.from_elements %out : tensor<f32>
      %from_elements_28 = tensor.from_elements %in : tensor<f32>
      %extracted = tensor.extract %from_elements[] : tensor<f32>
      %extracted_29 = tensor.extract %from_elements_28[] : tensor<f32>
      %160 = arith.addf %extracted, %extracted_29 : f32
      %from_elements_30 = tensor.from_elements %160 : tensor<f32>
      %extracted_31 = tensor.extract %from_elements_30[] : tensor<f32>
      linalg.yield %extracted_31 : f32
    } -> tensor<32xf32>
    %cst_18 = arith.constant 0xFF800000 : f32
    %78 = tensor.empty() : tensor<32xf32>
    %79 = linalg.fill ins(%cst_18 : f32) outs(%78 : tensor<32xf32>) -> tensor<32xf32>
    %80 = linalg.generic {indexing_maps = [#map2, #map3], iterator_types = ["parallel", "reduction"]} ins(%52 : tensor<32x10xf32>) outs(%79 : tensor<32xf32>) {
    ^bb0(%in: f32, %out: f32):
      %from_elements = tensor.from_elements %out : tensor<f32>
      %from_elements_28 = tensor.from_elements %in : tensor<f32>
      %extracted = tensor.extract %from_elements[] : tensor<f32>
      %extracted_29 = tensor.extract %from_elements_28[] : tensor<f32>
      %160 = arith.maximumf %extracted, %extracted_29 : f32
      %from_elements_30 = tensor.from_elements %160 : tensor<f32>
      %extracted_31 = tensor.extract %from_elements_30[] : tensor<f32>
      linalg.yield %extracted_31 : f32
    } -> tensor<32xf32>
    %expanded_19 = tensor.expand_shape %80 [[0, 1]] : tensor<32xf32> into tensor<32x1xf32>
    %81 = tensor.empty() : tensor<32x10xf32>
    %82 = linalg.generic {indexing_maps = [#map4, #map2], iterator_types = ["parallel", "parallel"]} ins(%expanded_19 : tensor<32x1xf32>) outs(%81 : tensor<32x10xf32>) {
    ^bb0(%in: f32, %out: f32):
      linalg.yield %in : f32
    } -> tensor<32x10xf32>
    %83 = tensor.empty() : tensor<32x10xf32>
    %84 = linalg.generic {indexing_maps = [#map2, #map2, #map2], iterator_types = ["parallel", "parallel"]} ins(%52, %82 : tensor<32x10xf32>, tensor<32x10xf32>) outs(%83 : tensor<32x10xf32>) {
    ^bb0(%in: f32, %in_28: f32, %out: f32):
      %160 = arith.subf %in, %in_28 : f32
      linalg.yield %160 : f32
    } -> tensor<32x10xf32>
    %85 = tensor.empty() : tensor<32x10xf32>
    %86 = linalg.generic {indexing_maps = [#map2, #map2], iterator_types = ["parallel", "parallel"]} ins(%84 : tensor<32x10xf32>) outs(%85 : tensor<32x10xf32>) {
    ^bb0(%in: f32, %out: f32):
      %160 = math.exp %in : f32
      linalg.yield %160 : f32
    } -> tensor<32x10xf32>
    %cst_20 = arith.constant -0.000000e+00 : f32
    %87 = tensor.empty() : tensor<32xf32>
    %88 = linalg.fill ins(%cst_20 : f32) outs(%87 : tensor<32xf32>) -> tensor<32xf32>
    %89 = linalg.generic {indexing_maps = [#map2, #map3], iterator_types = ["parallel", "reduction"]} ins(%86 : tensor<32x10xf32>) outs(%88 : tensor<32xf32>) {
    ^bb0(%in: f32, %out: f32):
      %from_elements = tensor.from_elements %out : tensor<f32>
      %from_elements_28 = tensor.from_elements %in : tensor<f32>
      %extracted = tensor.extract %from_elements[] : tensor<f32>
      %extracted_29 = tensor.extract %from_elements_28[] : tensor<f32>
      %160 = arith.addf %extracted, %extracted_29 : f32
      %from_elements_30 = tensor.from_elements %160 : tensor<f32>
      %extracted_31 = tensor.extract %from_elements_30[] : tensor<f32>
      linalg.yield %extracted_31 : f32
    } -> tensor<32xf32>
    %expanded_21 = tensor.expand_shape %89 [[0, 1]] : tensor<32xf32> into tensor<32x1xf32>
    %90 = tensor.empty() : tensor<32x10xf32>
    %91 = linalg.generic {indexing_maps = [#map4, #map2], iterator_types = ["parallel", "parallel"]} ins(%expanded_21 : tensor<32x1xf32>) outs(%90 : tensor<32x10xf32>) {
    ^bb0(%in: f32, %out: f32):
      linalg.yield %in : f32
    } -> tensor<32x10xf32>
    %92 = tensor.empty() : tensor<32x10xf32>
    %93 = linalg.generic {indexing_maps = [#map2, #map2, #map2], iterator_types = ["parallel", "parallel"]} ins(%86, %91 : tensor<32x10xf32>, tensor<32x10xf32>) outs(%92 : tensor<32x10xf32>) {
    ^bb0(%in: f32, %in_28: f32, %out: f32):
      %160 = arith.divf %in, %in_28 : f32
      linalg.yield %160 : f32
    } -> tensor<32x10xf32>
    %94 = tensor.empty() : tensor<32x10xf32>
    %95 = linalg.generic {indexing_maps = [#map2, #map2, #map2], iterator_types = ["parallel", "parallel"]} ins(%93, %25 : tensor<32x10xf32>, tensor<32x10xf32>) outs(%94 : tensor<32x10xf32>) {
    ^bb0(%in: f32, %in_28: f32, %out: f32):
      %160 = arith.subf %in, %in_28 : f32
      linalg.yield %160 : f32
    } -> tensor<32x10xf32>
    %96 = tensor.empty() : tensor<i64>
    %97 = linalg.generic {indexing_maps = [#map6, #map6, #map6], iterator_types = []} ins(%36, %cst_9 : tensor<i64>, tensor<i64>) outs(%96 : tensor<i64>) {
    ^bb0(%in: i64, %in_28: i64, %out: i64):
      %160 = arith.addi %in, %in_28 : i64
      linalg.yield %160 : i64
    } -> tensor<i64>
    %cst_22 = arith.constant -0.000000e+00 : f32
    %98 = tensor.empty() : tensor<f32>
    %99 = linalg.fill ins(%cst_22 : f32) outs(%98 : tensor<f32>) -> tensor<f32>
    %100 = linalg.generic {indexing_maps = [#map, #map7], iterator_types = ["reduction"]} ins(%77 : tensor<32xf32>) outs(%99 : tensor<f32>) {
    ^bb0(%in: f32, %out: f32):
      %from_elements = tensor.from_elements %out : tensor<f32>
      %from_elements_28 = tensor.from_elements %in : tensor<f32>
      %extracted = tensor.extract %from_elements[] : tensor<f32>
      %extracted_29 = tensor.extract %from_elements_28[] : tensor<f32>
      %160 = arith.addf %extracted, %extracted_29 : f32
      %from_elements_30 = tensor.from_elements %160 : tensor<f32>
      %extracted_31 = tensor.extract %from_elements_30[] : tensor<f32>
      linalg.yield %extracted_31 : f32
    } -> tensor<f32>
    %101 = tensor.empty() : tensor<32x10xf32>
    %102 = linalg.generic {indexing_maps = [#map2, #map2, #map2], iterator_types = ["parallel", "parallel"]} ins(%95, %cst : tensor<32x10xf32>, tensor<32x10xf32>) outs(%101 : tensor<32x10xf32>) {
    ^bb0(%in: f32, %in_28: f32, %out: f32):
      %160 = arith.mulf %in, %in_28 : f32
      linalg.yield %160 : f32
    } -> tensor<32x10xf32>
    %cst_23 = arith.constant -0.000000e+00 : f32
    %103 = tensor.empty() : tensor<10xf32>
    %104 = linalg.fill ins(%cst_23 : f32) outs(%103 : tensor<10xf32>) -> tensor<10xf32>
    %105 = linalg.generic {indexing_maps = [#map5, #map3], iterator_types = ["parallel", "reduction"]} ins(%102 : tensor<32x10xf32>) outs(%104 : tensor<10xf32>) {
    ^bb0(%in: f32, %out: f32):
      %from_elements = tensor.from_elements %out : tensor<f32>
      %from_elements_28 = tensor.from_elements %in : tensor<f32>
      %extracted = tensor.extract %from_elements[] : tensor<f32>
      %extracted_29 = tensor.extract %from_elements_28[] : tensor<f32>
      %160 = arith.addf %extracted, %extracted_29 : f32
      %from_elements_30 = tensor.from_elements %160 : tensor<f32>
      %extracted_31 = tensor.extract %from_elements_30[] : tensor<f32>
      linalg.yield %extracted_31 : f32
    } -> tensor<10xf32>
    %106 = tensor.empty() : tensor<10x128xf32>
    %107 = linalg.generic {indexing_maps = [#map5, #map2], iterator_types = ["parallel", "parallel"]} ins(%33 : tensor<128x10xf32>) outs(%106 : tensor<10x128xf32>) {
    ^bb0(%in: f32, %out: f32):
      linalg.yield %in : f32
    } -> tensor<10x128xf32>
    %108 = tensor.empty() : tensor<32x128xf32>
    %cst_24 = arith.constant 0.000000e+00 : f32
    %109 = linalg.fill ins(%cst_24 : f32) outs(%108 : tensor<32x128xf32>) -> tensor<32x128xf32>
    %110 = linalg.matmul ins(%102, %107 : tensor<32x10xf32>, tensor<10x128xf32>) outs(%109 : tensor<32x128xf32>) -> tensor<32x128xf32>
    %111 = tensor.empty() : tensor<32x128xi1>
    %112 = linalg.generic {indexing_maps = [#map2, #map2, #map2], iterator_types = ["parallel", "parallel"]} ins(%45, %cst_6 : tensor<32x128xf32>, tensor<32x128xf32>) outs(%111 : tensor<32x128xi1>) {
    ^bb0(%in: f32, %in_28: f32, %out: i1):
      %160 = arith.cmpf ogt, %in, %in_28 : f32
      linalg.yield %160 : i1
    } -> tensor<32x128xi1>
    %113 = tensor.empty() : tensor<32x128xf32>
    %114 = linalg.generic {indexing_maps = [#map2, #map2, #map2, #map2], iterator_types = ["parallel", "parallel"]} ins(%112, %110, %cst_6 : tensor<32x128xi1>, tensor<32x128xf32>, tensor<32x128xf32>) outs(%113 : tensor<32x128xf32>) {
    ^bb0(%in: i1, %in_28: f32, %in_29: f32, %out: f32):
      %160 = arith.select %in, %in_28, %in_29 : f32
      linalg.yield %160 : f32
    } -> tensor<32x128xf32>
    %cst_25 = arith.constant -0.000000e+00 : f32
    %115 = tensor.empty() : tensor<128xf32>
    %116 = linalg.fill ins(%cst_25 : f32) outs(%115 : tensor<128xf32>) -> tensor<128xf32>
    %117 = linalg.generic {indexing_maps = [#map5, #map3], iterator_types = ["parallel", "reduction"]} ins(%114 : tensor<32x128xf32>) outs(%116 : tensor<128xf32>) {
    ^bb0(%in: f32, %out: f32):
      %from_elements = tensor.from_elements %out : tensor<f32>
      %from_elements_28 = tensor.from_elements %in : tensor<f32>
      %extracted = tensor.extract %from_elements[] : tensor<f32>
      %extracted_29 = tensor.extract %from_elements_28[] : tensor<f32>
      %160 = arith.addf %extracted, %extracted_29 : f32
      %from_elements_30 = tensor.from_elements %160 : tensor<f32>
      %extracted_31 = tensor.extract %from_elements_30[] : tensor<f32>
      linalg.yield %extracted_31 : f32
    } -> tensor<128xf32>
    %118 = tensor.empty() : tensor<784x128xf32>
    %cst_26 = arith.constant 0.000000e+00 : f32
    %119 = linalg.fill ins(%cst_26 : f32) outs(%118 : tensor<784x128xf32>) -> tensor<784x128xf32>
    %120 = linalg.matmul ins(%31, %114 : tensor<784x32xf32>, tensor<32x128xf32>) outs(%119 : tensor<784x128xf32>) -> tensor<784x128xf32>
    %121 = tensor.empty() : tensor<128x32xf32>
    %122 = linalg.generic {indexing_maps = [#map5, #map2], iterator_types = ["parallel", "parallel"]} ins(%45 : tensor<32x128xf32>) outs(%121 : tensor<128x32xf32>) {
    ^bb0(%in: f32, %out: f32):
      linalg.yield %in : f32
    } -> tensor<128x32xf32>
    %123 = tensor.empty() : tensor<128x10xf32>
    %cst_27 = arith.constant 0.000000e+00 : f32
    %124 = linalg.fill ins(%cst_27 : f32) outs(%123 : tensor<128x10xf32>) -> tensor<128x10xf32>
    %125 = linalg.matmul ins(%122, %102 : tensor<128x32xf32>, tensor<32x10xf32>) outs(%124 : tensor<128x10xf32>) -> tensor<128x10xf32>
    %126 = tensor.empty() : tensor<f32>
    %127 = linalg.generic {indexing_maps = [#map6, #map6, #map6], iterator_types = []} ins(%100, %cst_10 : tensor<f32>, tensor<f32>) outs(%126 : tensor<f32>) {
    ^bb0(%in: f32, %in_28: f32, %out: f32):
      %160 = arith.divf %in, %in_28 : f32
      linalg.yield %160 : f32
    } -> tensor<f32>
    ml_program.global_store @vars.__sm_node19__optimizer._iterations = %97 : tensor<i64>
    %128 = ml_program.global_load @vars.__sm_node20__optimizer._learning_rate : tensor<f32>
    %129 = ml_program.global_load @vars.__sm_node20__optimizer._learning_rate : tensor<f32>
    %130 = ml_program.global_load @vars.__sm_node20__optimizer._learning_rate : tensor<f32>
    %131 = ml_program.global_load @vars.__sm_node20__optimizer._learning_rate : tensor<f32>
    %132 = ml_program.global_load @vars.__sm_node31__model._layers.2._kernel : tensor<784x128xf32>
    %133 = tensor.empty() : tensor<784x128xf32>
    %134 = linalg.generic {indexing_maps = [#map8, #map2], iterator_types = ["parallel", "parallel"]} ins(%128 : tensor<f32>) outs(%133 : tensor<784x128xf32>) {
    ^bb0(%in: f32, %out: f32):
      linalg.yield %in : f32
    } -> tensor<784x128xf32>
    %135 = tensor.empty() : tensor<784x128xf32>
    %136 = linalg.generic {indexing_maps = [#map2, #map2, #map2], iterator_types = ["parallel", "parallel"]} ins(%120, %134 : tensor<784x128xf32>, tensor<784x128xf32>) outs(%135 : tensor<784x128xf32>) {
    ^bb0(%in: f32, %in_28: f32, %out: f32):
      %160 = arith.mulf %in, %in_28 : f32
      linalg.yield %160 : f32
    } -> tensor<784x128xf32>
    %137 = tensor.empty() : tensor<784x128xf32>
    %138 = linalg.generic {indexing_maps = [#map2, #map2, #map2], iterator_types = ["parallel", "parallel"]} ins(%132, %136 : tensor<784x128xf32>, tensor<784x128xf32>) outs(%137 : tensor<784x128xf32>) {
    ^bb0(%in: f32, %in_28: f32, %out: f32):
      %160 = arith.subf %in, %in_28 : f32
      linalg.yield %160 : f32
    } -> tensor<784x128xf32>
    %139 = tensor.empty() : tensor<128xf32>
    %140 = linalg.generic {indexing_maps = [#map7, #map], iterator_types = ["parallel"]} ins(%129 : tensor<f32>) outs(%139 : tensor<128xf32>) {
    ^bb0(%in: f32, %out: f32):
      linalg.yield %in : f32
    } -> tensor<128xf32>
    %141 = tensor.empty() : tensor<128xf32>
    %142 = linalg.generic {indexing_maps = [#map, #map, #map], iterator_types = ["parallel"]} ins(%117, %140 : tensor<128xf32>, tensor<128xf32>) outs(%141 : tensor<128xf32>) {
    ^bb0(%in: f32, %in_28: f32, %out: f32):
      %160 = arith.mulf %in, %in_28 : f32
      linalg.yield %160 : f32
    } -> tensor<128xf32>
    %143 = tensor.empty() : tensor<128x10xf32>
    %144 = linalg.generic {indexing_maps = [#map8, #map2], iterator_types = ["parallel", "parallel"]} ins(%130 : tensor<f32>) outs(%143 : tensor<128x10xf32>) {
    ^bb0(%in: f32, %out: f32):
      linalg.yield %in : f32
    } -> tensor<128x10xf32>
    %145 = tensor.empty() : tensor<128x10xf32>
    %146 = linalg.generic {indexing_maps = [#map2, #map2, #map2], iterator_types = ["parallel", "parallel"]} ins(%125, %144 : tensor<128x10xf32>, tensor<128x10xf32>) outs(%145 : tensor<128x10xf32>) {
    ^bb0(%in: f32, %in_28: f32, %out: f32):
      %160 = arith.mulf %in, %in_28 : f32
      linalg.yield %160 : f32
    } -> tensor<128x10xf32>
    %147 = tensor.empty() : tensor<10xf32>
    %148 = linalg.generic {indexing_maps = [#map7, #map], iterator_types = ["parallel"]} ins(%131 : tensor<f32>) outs(%147 : tensor<10xf32>) {
    ^bb0(%in: f32, %out: f32):
      linalg.yield %in : f32
    } -> tensor<10xf32>
    %149 = tensor.empty() : tensor<10xf32>
    %150 = linalg.generic {indexing_maps = [#map, #map, #map], iterator_types = ["parallel"]} ins(%105, %148 : tensor<10xf32>, tensor<10xf32>) outs(%149 : tensor<10xf32>) {
    ^bb0(%in: f32, %in_28: f32, %out: f32):
      %160 = arith.mulf %in, %in_28 : f32
      linalg.yield %160 : f32
    } -> tensor<10xf32>
    ml_program.global_store @vars.__sm_node31__model._layers.2._kernel = %138 : tensor<784x128xf32>
    %151 = ml_program.global_load @vars.__sm_node32__model._layers.2.bias : tensor<128xf32>
    %152 = tensor.empty() : tensor<128xf32>
    %153 = linalg.generic {indexing_maps = [#map, #map, #map], iterator_types = ["parallel"]} ins(%151, %142 : tensor<128xf32>, tensor<128xf32>) outs(%152 : tensor<128xf32>) {
    ^bb0(%in: f32, %in_28: f32, %out: f32):
      %160 = arith.subf %in, %in_28 : f32
      linalg.yield %160 : f32
    } -> tensor<128xf32>
    ml_program.global_store @vars.__sm_node32__model._layers.2.bias = %153 : tensor<128xf32>
    %154 = ml_program.global_load @vars.__sm_node33__model._layers.4._kernel : tensor<128x10xf32>
    %155 = tensor.empty() : tensor<128x10xf32>
    %156 = linalg.generic {indexing_maps = [#map2, #map2, #map2], iterator_types = ["parallel", "parallel"]} ins(%154, %146 : tensor<128x10xf32>, tensor<128x10xf32>) outs(%155 : tensor<128x10xf32>) {
    ^bb0(%in: f32, %in_28: f32, %out: f32):
      %160 = arith.subf %in, %in_28 : f32
      linalg.yield %160 : f32
    } -> tensor<128x10xf32>
    ml_program.global_store @vars.__sm_node33__model._layers.4._kernel = %156 : tensor<128x10xf32>
    %157 = ml_program.global_load @vars.__sm_node34__model._layers.4.bias : tensor<10xf32>
    %158 = tensor.empty() : tensor<10xf32>
    %159 = linalg.generic {indexing_maps = [#map, #map, #map], iterator_types = ["parallel"]} ins(%157, %150 : tensor<10xf32>, tensor<10xf32>) outs(%158 : tensor<10xf32>) {
    ^bb0(%in: f32, %in_28: f32, %out: f32):
      %160 = arith.subf %in, %in_28 : f32
      linalg.yield %160 : f32
    } -> tensor<10xf32>
    ml_program.global_store @vars.__sm_node34__model._layers.4.bias = %159 : tensor<10xf32>
    return %127 : tensor<f32>
  }
  func.func @predict(%arg0: tensor<32x28x28x1xf32>) -> tensor<32x10xf32> {
    %cst = arith.constant dense<0.000000e+00> : tensor<32x128xf32>
    %cst_0 = arith.constant dense<-0.000000e+00> : tensor<f32>
    %cst_1 = arith.constant dense<0xFF800000> : tensor<f32>
    %collapsed = tensor.collapse_shape %arg0 [[0], [1, 2, 3]] : tensor<32x28x28x1xf32> into tensor<32x784xf32>
    %0 = ml_program.global_load @vars.__sm_node34__model._layers.4.bias : tensor<10xf32>
    %1 = ml_program.global_load @vars.__sm_node33__model._layers.4._kernel : tensor<128x10xf32>
    %2 = ml_program.global_load @vars.__sm_node32__model._layers.2.bias : tensor<128xf32>
    %3 = ml_program.global_load @vars.__sm_node31__model._layers.2._kernel : tensor<784x128xf32>
    %4 = tensor.empty() : tensor<32x128xf32>
    %cst_2 = arith.constant 0.000000e+00 : f32
    %5 = linalg.fill ins(%cst_2 : f32) outs(%4 : tensor<32x128xf32>) -> tensor<32x128xf32>
    %6 = linalg.matmul ins(%collapsed, %3 : tensor<32x784xf32>, tensor<784x128xf32>) outs(%5 : tensor<32x128xf32>) -> tensor<32x128xf32>
    %7 = tensor.empty() : tensor<32x128xf32>
    %8 = linalg.generic {indexing_maps = [#map1, #map2], iterator_types = ["parallel", "parallel"]} ins(%2 : tensor<128xf32>) outs(%7 : tensor<32x128xf32>) {
    ^bb0(%in: f32, %out: f32):
      linalg.yield %in : f32
    } -> tensor<32x128xf32>
    %9 = tensor.empty() : tensor<32x128xf32>
    %10 = linalg.generic {indexing_maps = [#map2, #map2, #map2], iterator_types = ["parallel", "parallel"]} ins(%6, %8 : tensor<32x128xf32>, tensor<32x128xf32>) outs(%9 : tensor<32x128xf32>) {
    ^bb0(%in: f32, %in_7: f32, %out: f32):
      %36 = arith.addf %in, %in_7 : f32
      linalg.yield %36 : f32
    } -> tensor<32x128xf32>
    %11 = tensor.empty() : tensor<32x128xf32>
    %12 = linalg.generic {indexing_maps = [#map2, #map2, #map2], iterator_types = ["parallel", "parallel"]} ins(%10, %cst : tensor<32x128xf32>, tensor<32x128xf32>) outs(%11 : tensor<32x128xf32>) {
    ^bb0(%in: f32, %in_7: f32, %out: f32):
      %36 = arith.maximumf %in, %in_7 : f32
      linalg.yield %36 : f32
    } -> tensor<32x128xf32>
    %13 = tensor.empty() : tensor<32x10xf32>
    %cst_3 = arith.constant 0.000000e+00 : f32
    %14 = linalg.fill ins(%cst_3 : f32) outs(%13 : tensor<32x10xf32>) -> tensor<32x10xf32>
    %15 = linalg.matmul ins(%12, %1 : tensor<32x128xf32>, tensor<128x10xf32>) outs(%14 : tensor<32x10xf32>) -> tensor<32x10xf32>
    %16 = tensor.empty() : tensor<32x10xf32>
    %17 = linalg.generic {indexing_maps = [#map1, #map2], iterator_types = ["parallel", "parallel"]} ins(%0 : tensor<10xf32>) outs(%16 : tensor<32x10xf32>) {
    ^bb0(%in: f32, %out: f32):
      linalg.yield %in : f32
    } -> tensor<32x10xf32>
    %18 = tensor.empty() : tensor<32x10xf32>
    %19 = linalg.generic {indexing_maps = [#map2, #map2, #map2], iterator_types = ["parallel", "parallel"]} ins(%15, %17 : tensor<32x10xf32>, tensor<32x10xf32>) outs(%18 : tensor<32x10xf32>) {
    ^bb0(%in: f32, %in_7: f32, %out: f32):
      %36 = arith.addf %in, %in_7 : f32
      linalg.yield %36 : f32
    } -> tensor<32x10xf32>
    %cst_4 = arith.constant 0xFF800000 : f32
    %20 = tensor.empty() : tensor<32xf32>
    %21 = linalg.fill ins(%cst_4 : f32) outs(%20 : tensor<32xf32>) -> tensor<32xf32>
    %22 = linalg.generic {indexing_maps = [#map2, #map3], iterator_types = ["parallel", "reduction"]} ins(%19 : tensor<32x10xf32>) outs(%21 : tensor<32xf32>) {
    ^bb0(%in: f32, %out: f32):
      %from_elements = tensor.from_elements %out : tensor<f32>
      %from_elements_7 = tensor.from_elements %in : tensor<f32>
      %extracted = tensor.extract %from_elements[] : tensor<f32>
      %extracted_8 = tensor.extract %from_elements_7[] : tensor<f32>
      %36 = arith.maximumf %extracted, %extracted_8 : f32
      %from_elements_9 = tensor.from_elements %36 : tensor<f32>
      %extracted_10 = tensor.extract %from_elements_9[] : tensor<f32>
      linalg.yield %extracted_10 : f32
    } -> tensor<32xf32>
    %expanded = tensor.expand_shape %22 [[0, 1]] : tensor<32xf32> into tensor<32x1xf32>
    %23 = tensor.empty() : tensor<32x10xf32>
    %24 = linalg.generic {indexing_maps = [#map4, #map2], iterator_types = ["parallel", "parallel"]} ins(%expanded : tensor<32x1xf32>) outs(%23 : tensor<32x10xf32>) {
    ^bb0(%in: f32, %out: f32):
      linalg.yield %in : f32
    } -> tensor<32x10xf32>
    %25 = tensor.empty() : tensor<32x10xf32>
    %26 = linalg.generic {indexing_maps = [#map2, #map2, #map2], iterator_types = ["parallel", "parallel"]} ins(%19, %24 : tensor<32x10xf32>, tensor<32x10xf32>) outs(%25 : tensor<32x10xf32>) {
    ^bb0(%in: f32, %in_7: f32, %out: f32):
      %36 = arith.subf %in, %in_7 : f32
      linalg.yield %36 : f32
    } -> tensor<32x10xf32>
    %27 = tensor.empty() : tensor<32x10xf32>
    %28 = linalg.generic {indexing_maps = [#map2, #map2], iterator_types = ["parallel", "parallel"]} ins(%26 : tensor<32x10xf32>) outs(%27 : tensor<32x10xf32>) {
    ^bb0(%in: f32, %out: f32):
      %36 = math.exp %in : f32
      linalg.yield %36 : f32
    } -> tensor<32x10xf32>
    %cst_5 = arith.constant -0.000000e+00 : f32
    %29 = tensor.empty() : tensor<32xf32>
    %30 = linalg.fill ins(%cst_5 : f32) outs(%29 : tensor<32xf32>) -> tensor<32xf32>
    %31 = linalg.generic {indexing_maps = [#map2, #map3], iterator_types = ["parallel", "reduction"]} ins(%28 : tensor<32x10xf32>) outs(%30 : tensor<32xf32>) {
    ^bb0(%in: f32, %out: f32):
      %from_elements = tensor.from_elements %out : tensor<f32>
      %from_elements_7 = tensor.from_elements %in : tensor<f32>
      %extracted = tensor.extract %from_elements[] : tensor<f32>
      %extracted_8 = tensor.extract %from_elements_7[] : tensor<f32>
      %36 = arith.addf %extracted, %extracted_8 : f32
      %from_elements_9 = tensor.from_elements %36 : tensor<f32>
      %extracted_10 = tensor.extract %from_elements_9[] : tensor<f32>
      linalg.yield %extracted_10 : f32
    } -> tensor<32xf32>
    %expanded_6 = tensor.expand_shape %31 [[0, 1]] : tensor<32xf32> into tensor<32x1xf32>
    %32 = tensor.empty() : tensor<32x10xf32>
    %33 = linalg.generic {indexing_maps = [#map4, #map2], iterator_types = ["parallel", "parallel"]} ins(%expanded_6 : tensor<32x1xf32>) outs(%32 : tensor<32x10xf32>) {
    ^bb0(%in: f32, %out: f32):
      linalg.yield %in : f32
    } -> tensor<32x10xf32>
    %34 = tensor.empty() : tensor<32x10xf32>
    %35 = linalg.generic {indexing_maps = [#map2, #map2, #map2], iterator_types = ["parallel", "parallel"]} ins(%28, %33 : tensor<32x10xf32>, tensor<32x10xf32>) outs(%34 : tensor<32x10xf32>) {
    ^bb0(%in: f32, %in_7: f32, %out: f32):
      %36 = arith.divf %in, %in_7 : f32
      linalg.yield %36 : f32
    } -> tensor<32x10xf32>
    return %35 : tensor<32x10xf32>
  }
}

