module {
  ml_program.global public @vars.__sm_node61__model._layers.3._kernel(dense<"…"> : tensor<3x3x32x64xf32>) : tensor<3x3x32x64xf32>
  ml_program.global public @vars.__sm_node62__model._layers.3.bias(dense<[… > : tensor<64xf32>) : tensor<64xf32>
  ml_program.global public @vars.__sm_node59__model._layers.1._kernel(dense<"…"> : tensor<3x3x1x32xf32>) : tensor<3x3x1x32xf32>
  ml_program.global public @vars.__sm_node60__model._layers.1.bias(dense<[… > : tensor<32xf32>) : tensor<32xf32>
  ml_program.global public @vars.__sm_node66__model._layers.7.bias(dense<[0.0177211463, 0.0658129155, -3.629870e-02, -0.0268510282, -0.00256047584, -6.84115803E-4, -0.0505766347, -2.59104301E-4, 0.056140352, -0.0322472379]> : tensor<10xf32>) : tensor<10xf32>
  ml_program.global public @vars.__sm_node65__model._layers.7._kernel(dense<"…"> : tensor<128x10xf32>) : tensor<128x10xf32>
  ml_program.global public @vars.__sm_node64__model._layers.6.bias(dense<"…"> : tensor<128xf32>) : tensor<128xf32>
  ml_program.global public @vars.__sm_node63__model._layers.6._kernel(dense<"…"> : tensor<1600x128xf32>) : tensor<1600x128xf32>
  func.func @predict(%arg0: tensor<28x28x1xf32>) -> tensor<10xf32> {
    %cst = stablehlo.constant dense<0.000000e+00> : tensor<1x128xf32>
    %cst_0 = stablehlo.constant dense<0.000000e+00> : tensor<1x11x11x64xf32>
    %cst_1 = stablehlo.constant dense<0.000000e+00> : tensor<1x26x26x32xf32>
    %cst_2 = stablehlo.constant dense<-0.000000e+00> : tensor<f32>
    %cst_3 = stablehlo.constant dense<0xFF800000> : tensor<f32>
    %0 = stablehlo.reshape %arg0 : (tensor<28x28x1xf32>) -> tensor<1x28x28x1xf32>
    %vars.__sm_node61__model._layers.3._kernel = ml_program.global_load @vars.__sm_node61__model._layers.3._kernel : tensor<3x3x32x64xf32>
    %vars.__sm_node62__model._layers.3.bias = ml_program.global_load @vars.__sm_node62__model._layers.3.bias : tensor<64xf32>
    %vars.__sm_node59__model._layers.1._kernel = ml_program.global_load @vars.__sm_node59__model._layers.1._kernel : tensor<3x3x1x32xf32>
    %vars.__sm_node60__model._layers.1.bias = ml_program.global_load @vars.__sm_node60__model._layers.1.bias : tensor<32xf32>
    %vars.__sm_node66__model._layers.7.bias = ml_program.global_load @vars.__sm_node66__model._layers.7.bias : tensor<10xf32>
    %vars.__sm_node65__model._layers.7._kernel = ml_program.global_load @vars.__sm_node65__model._layers.7._kernel : tensor<128x10xf32>
    %vars.__sm_node64__model._layers.6.bias = ml_program.global_load @vars.__sm_node64__model._layers.6.bias : tensor<128xf32>
    %vars.__sm_node63__model._layers.6._kernel = ml_program.global_load @vars.__sm_node63__model._layers.6._kernel : tensor<1600x128xf32>
    %1 = stablehlo.convolution(%0, %vars.__sm_node59__model._layers.1._kernel) dim_numbers = [b, 0, 1, f]x[0, 1, i, o]->[b, 0, 1, f], window = {stride = [1, 1], pad = [[0, 0], [0, 0]], rhs_dilate = [1, 1]} {batch_group_count = 1 : i64, feature_group_count = 1 : i64, precision_config = [#stablehlo<precision DEFAULT>, #stablehlo<precision DEFAULT>]} : (tensor<1x28x28x1xf32>, tensor<3x3x1x32xf32>) -> tensor<1x26x26x32xf32>
    %2 = stablehlo.broadcast_in_dim %vars.__sm_node60__model._layers.1.bias, dims = [3] : (tensor<32xf32>) -> tensor<1x26x26x32xf32>
    %3 = stablehlo.add %1, %2 : tensor<1x26x26x32xf32>
    %4 = stablehlo.maximum %3, %cst_1 : tensor<1x26x26x32xf32>
    %5 = "stablehlo.reduce_window"(%4, %cst_3) <{window_dimensions = array<i64: 1, 2, 2, 1>, window_strides = array<i64: 1, 2, 2, 1>}> ({
    ^bb0(%arg1: tensor<f32>, %arg2: tensor<f32>):
      %29 = stablehlo.maximum %arg1, %arg2 : tensor<f32>
      stablehlo.return %29 : tensor<f32>
    }) : (tensor<1x26x26x32xf32>, tensor<f32>) -> tensor<1x13x13x32xf32>
    %6 = stablehlo.convolution(%5, %vars.__sm_node61__model._layers.3._kernel) dim_numbers = [b, 0, 1, f]x[0, 1, i, o]->[b, 0, 1, f], window = {stride = [1, 1], pad = [[0, 0], [0, 0]], rhs_dilate = [1, 1]} {batch_group_count = 1 : i64, feature_group_count = 1 : i64, precision_config = [#stablehlo<precision DEFAULT>, #stablehlo<precision DEFAULT>]} : (tensor<1x13x13x32xf32>, tensor<3x3x32x64xf32>) -> tensor<1x11x11x64xf32>
    %7 = stablehlo.broadcast_in_dim %vars.__sm_node62__model._layers.3.bias, dims = [3] : (tensor<64xf32>) -> tensor<1x11x11x64xf32>
    %8 = stablehlo.add %6, %7 : tensor<1x11x11x64xf32>
    %9 = stablehlo.maximum %8, %cst_0 : tensor<1x11x11x64xf32>
    %10 = "stablehlo.reduce_window"(%9, %cst_3) <{window_dimensions = array<i64: 1, 2, 2, 1>, window_strides = array<i64: 1, 2, 2, 1>}> ({
    ^bb0(%arg1: tensor<f32>, %arg2: tensor<f32>):
      %29 = stablehlo.maximum %arg1, %arg2 : tensor<f32>
      stablehlo.return %29 : tensor<f32>
    }) : (tensor<1x11x11x64xf32>, tensor<f32>) -> tensor<1x5x5x64xf32>
    %11 = stablehlo.reshape %10 : (tensor<1x5x5x64xf32>) -> tensor<1x1600xf32>
    %12 = stablehlo.dot %11, %vars.__sm_node63__model._layers.6._kernel, precision = [DEFAULT, DEFAULT] : (tensor<1x1600xf32>, tensor<1600x128xf32>) -> tensor<1x128xf32>
    %13 = stablehlo.reshape %vars.__sm_node64__model._layers.6.bias : (tensor<128xf32>) -> tensor<1x128xf32>
    %14 = stablehlo.add %12, %13 : tensor<1x128xf32>
    %15 = stablehlo.maximum %14, %cst : tensor<1x128xf32>
    %16 = stablehlo.dot %15, %vars.__sm_node65__model._layers.7._kernel, precision = [DEFAULT, DEFAULT] : (tensor<1x128xf32>, tensor<128x10xf32>) -> tensor<1x10xf32>
    %17 = stablehlo.reshape %vars.__sm_node66__model._layers.7.bias : (tensor<10xf32>) -> tensor<1x10xf32>
    %18 = stablehlo.add %16, %17 : tensor<1x10xf32>
    %19 = stablehlo.reduce(%18 init: %cst_3) applies stablehlo.maximum across dimensions = [1] : (tensor<1x10xf32>, tensor<f32>) -> tensor<1xf32>
    %20 = stablehlo.reshape %19 : (tensor<1xf32>) -> tensor<1x1xf32>
    %21 = stablehlo.broadcast_in_dim %20, dims = [0, 1] : (tensor<1x1xf32>) -> tensor<1x10xf32>
    %22 = stablehlo.subtract %18, %21 : tensor<1x10xf32>
    %23 = stablehlo.exponential %22 : tensor<1x10xf32>
    %24 = stablehlo.reduce(%23 init: %cst_2) applies stablehlo.add across dimensions = [1] : (tensor<1x10xf32>, tensor<f32>) -> tensor<1xf32>
    %25 = stablehlo.reshape %24 : (tensor<1xf32>) -> tensor<1x1xf32>
    %26 = stablehlo.broadcast_in_dim %25, dims = [0, 1] : (tensor<1x1xf32>) -> tensor<1x10xf32>
    %27 = stablehlo.divide %23, %26 : tensor<1x10xf32>
    %28 = stablehlo.reshape %27 : (tensor<1x10xf32>) -> tensor<10xf32>
    return %28 : tensor<10xf32>
  }
}